data.pth (torch, 16191 bytes, 6 tensors)

l1.weight f4 [8, 260]
000000 6e 49 98 3f 37 e7 34 3d 2a 2f e1 bb 8e e4 33 bd
       1.1897409 0.044165816 -0.0068720775 -0.04391914
000010 e1 ff 24 3e 77 98 c9 3e fe f5 80 be 3b b9 a4 3e
       0.16113235 0.39374134 -0.25187677 0.3217257
000020 38 ab 65 3f fb e9 f4 3e 31 ce 90 3f 34 70 e5 bd
       0.89714384 0.47834763 1.1312925 -0.11203042
000030 56 39 a8 3e a6 7d 7d 3f 77 92 59 3f 7a 41 4a 3e
       0.32856244 0.9901985 0.8498911 0.1975154
000040 34 98 45 3e 56 80 07 3e d6 8d 68 bf b7 fd 8a 3f
       0.19296342 0.1323255 -0.90841424 1.0858678
000050 ab 4a 12 40 85 e4 e5 3f 38 7b 2d 40 e6 63 02 3f
       2.2858074 1.7960364 2.7106457 0.5093368
000060 b9 0f b7 3f 10 ba 4c 3e e8 6a 1e 3f 41 cd 3d be
       1.4301673 0.19992852 0.61881876 -0.1853533
000070 f2 23 0a 3f 6e 9b 28 be a7 24 44 be 3d 6d 3a 40
       0.539611 -0.16465542 -0.19154607 2.9129174
000080 db f3 7f 3e 07 c2 6b 3e c6 8a af 3f 76 80 4d 3f
       0.24995367 0.23023234 1.3714225 0.8027414
000090 74 cd f6 3e 34 3c cd 3e e2 1d 62 be b1 69 f7 bf
       0.48203623 0.40084994 -0.22081712 -1.932913
0000a0 5f 7b b7 3f fb ef 07 3e 05 e0 a7 be 0c 32 cb bf
       1.4334525 0.13275139 -0.327881 -1.5874648
0000b0 54 ed 04 3f bc 4a a6 be 54 4b 13 3f 89 9b b5 bf
       0.51924634 -0.32478893 0.57536817 -1.418809
0000c0 9d a6 3d 3f 32 02 3f 3e 1a 24 7c 3e 82 f4 9b 3e
       0.74082357 0.18653181 0.24623147 0.30459982
0000d0 3c 20 80 3e 2c d8 35 3f 0f 16 ed 3e a4 d7 6c 3f
       0.25024593 0.7103298 0.46305892 0.9251654
0000e0 fd 94 d3 bf 3f 94 ba be ab 99 58 3e ca 72 75 bf
       -1.6529843 -0.36441228 0.2115237 -0.9587828
0000f0 36 a5 60 40 11 e6 97 3d b8 fd aa 3f d7 1a 53 3f
       3.5100837 0.074169286 1.3358679 0.8246283
000100 07 ff 26 40 b6 f2 5e 40 75 5d 9b be 3e a4 c4 3e
       2.6093156 3.483564 -0.3034474 0.38406557
000110 c3 89 06 40 47 0b 97 bf 17 ec 22 40 09 4b 51 3e
       2.1021583 -1.1800317 2.5456598 0.2043878
000120 2a 63 5f 40 20 2b 26 be e4 72 0e be f7 b4 8e bf
       3.4904275 -0.16227388 -0.13911015 -1.1148976
000130 a7 37 0c 40 3c 23 9b bf dc 6a e2 be a9 5a 34 3f
       2.1908967 -1.2120128 -0.44222152 0.70450836
000140 15 76 55 3f a4 96 e0 3f 50 f3 ab 3e cc a5 9e 3f
       0.83383304 1.7545972 0.3358407 1.2394347
000150 77 36 02 c0 2e 15 f0 3f f7 39 3e 3e 46 68 a5 bf
       -2.0345743 1.8756464 0.185768 -1.2922447
000160 f7 cd a8 bf 50 0e 39 c0 55 fa 6f 3f b4 d8 67 be
       -1.3187855 -2.8914986 0.9374135 -0.2264126
000170 49 98 1c 3f b1 42 99 bb eb 53 9a 3f 0b 38 bc bf
       0.6116987 -0.0046771397 1.205686 -1.4704603
000180 4b 62 43 3e 96 fc bf 3d 7e aa 13 be 1b 71 3b 40
       0.19080465 0.09374349 -0.14420506 2.9287784
000190 23 ba 38 40 af 0c 3b be 40 fa 72 bf c0 75 41 3e
       2.886361 -0.18266557 -0.949131 0.18892574
0001a0 84 16 25 3e 0e 80 7b 3e 7b 99 fb 3d 6e 46 3a bf
       0.1612187 0.24560568 0.122851335 -0.7276372
0001b0 6c f5 81 be 4c 4e 3e 3f 38 02 7c 3f f2 c0 1a 3d
       -0.25382555 0.7433822 0.98440886 0.037781663
0001c0 77 4a 34 40 3f a5 5d 3f d7 23 fa be 9a 9c e5 3e
       2.817045 0.8658027 -0.4885547 0.4484604
0001d0 aa 1e 67 3f eb 41 5e 3f dc 36 19 be f3 ee 2e be
       0.90281165 0.8681933 -0.14962333 -0.1708334
0001e0 a6 90 68 40 03 15 58 bf 28 70 19 40 ca db d7 be
       3.6338286 -0.8440706 2.3974705 -0.42159873
0001f0 ca c9 a4 3f 58 d9 35 40 a0 dc 64 be e0 8c 9b bd
       1.2874081 2.8413906 -0.22349787 -0.07595229
000200 54 5e 49 3f ee f6 09 3f 40 35 2c 40 54 ae 0f 40
       0.7865956 0.5389241 2.6907501 2.2450151
000210 4a 7c c3 3a 98 ce 1b 3e 06 28 d1 bf c0 51 c9 bd
       0.001491436 0.15215528 -1.6340339 -0.09830046
000220 19 f6 86 bf ad 6f 88 bd 77 cd 86 bf 46 19 cc bf
       -1.0543853 -0.066619255 -1.0531453 -1.5945213
000230 64 a5 05 bd c3 ba 95 be 74 fc d9 be d8 0b bf 3f
       -0.032628432 -0.2924405 -0.4257542 1.492549
000240 a5 fe 56 3f 4f 1f a7 3f 18 07 30 3e b1 69 87 3e
       0.83982307 1.305643 0.17190206 0.26447824
000250 dc 78 ea bf 3f b3 14 40 98 b2 16 3f 4b ff 05 c0
       -1.8318133 2.3234403 0.5886626 -2.0937068
000260 66 97 8c be f5 7a e3 3f af 77 6d 3f 90 09 9f bd
       -0.27459258 1.7771899 0.9276075 -0.07765496
000270 db 8e 97 3e 9d c0 35 bf 12 f2 3d 3f cc 7a 60 3f
       0.29601178 -0.7099703 0.74197495 0.87687373
000280 99 08 a7 be 59 ec e5 3f e5 46 c6 3f 22 27 d4 be
       -0.32623747 1.7962753 1.5490385 -0.41436106
000290 17 58 ad bf 0b dd 36 3f 94 bc c8 3e 1d fa 23 3f
       -1.3542508 0.71431035 0.39206374 0.6405352
0002a0 4e 93 14 3f 79 b2 03 3e 65 28 9c 3f c6 2e 88 bf
       0.5803727 0.1286105 1.2199827 -1.0639274
0002b0 52 b8 86 bf 28 96 86 bf 1f be 86 bf 05 1c 61 38
       -1.0525 -1.0514574 -1.052677 5.3670276e-05
0002c0 7f 85 ba bf 19 51 af 3f 03 54 8c 3e f8 6a 94 3e
       -1.457199 1.3696624 0.27407846 0.2898786
0002d0 32 fd 84 bf 84 b4 0d bf e4 eb 13 bf 18 26 c5 3f
       -1.0389769 -0.5535357 -0.57781816 1.540225
0002e0 5c 26 b9 3f 5d 25 ac bf d0 43 4b 3e a8 c1 de be
       1.4464831 -1.3448902 0.19850087 -0.43507123
0002f0 02 9d 00 40 36 d1 5d 3f d2 f2 6a 3f 4c 1b 76 bf
       2.009583 0.86647356 0.91776764 -0.961354
000300 37 1f 1c 40 d9 99 84 bf b4 15 65 3f 79 39 04 3f
       2.4394052 -1.035945 0.8948624 0.51650196
000310 f3 1c 4d 3f 57 da 94 3e b2 73 4e 40 53 6f 29 40
       0.801223 0.2907283 3.2258115 2.6474197
000320 d8 0b d5 3d a4 13 51 be 7e d8 ee be be c2 ee be
       0.1040265 -0.20417649 -0.46649545 -0.46632951
000330 c3 a5 0f bf fb 1a fd 3e 90 0c e7 be ed 05 22 3f
       -0.5611231 0.49434647 -0.45126772 0.6329029
000340 f2 27 ea 3f 28 45 8f 3f af d3 16 be 38 3e 20 40
       1.829344 1.119298 -0.14729188 2.5037975
000350 19 be e3 3f 76 69 be 3f f9 2d 80 3f 61 f1 33 40
       1.7792388 1.4875934 1.001403 2.8116076
000360 75 c1 03 c0 2a 96 7f 3e 43 33 80 3f 87 ed 5b bd
       -2.0586827 0.24959627 1.0015644 -0.05369332
000370 53 69 50 3e f6 52 4a 3e 1a ae 2f 3e 84 cd a2 bf
       0.20352678 0.1975821 0.17156258 -1.2718968
000380 9f a6 9c 3e a0 99 9a 3e 6b 2c 99 be e7 79 0a 3f
       0.30595872 0.30195332 -0.299167 0.5409226
000390 9b 22 f0 3f 73 1e 0c c0 f8 ce ec 3d 86 b4 32 40
       1.8760561 -2.1893585 0.11562914 2.7922683
0003a0 04 7f 87 bf 81 00 dd 3f 2f 38 d4 be 93 c8 42 3f
       -1.0585637 1.7265779 -0.41449115 0.760873
0003b0 02 c8 ed 3f c8 29 38 3b 3a 5e e1 3f fc 56 a6 bf
       1.8576663 0.0028101075 1.7606881 -1.2995296
0003c0 89 95 33 40 e9 a0 55 3f 36 05 10 bf 10 a3 33 3f
       2.806002 0.83448654 -0.5625795 0.7017069
0003d0 9e c2 38 3f d2 17 31 bf 0c 1f cd 3d 08 0b 54 3e
       0.7217196 -0.6917697 0.10015687 0.20707333
0003e0 bf f2 2e 3f 9a 1f 7c 3f 32 93 aa bf 6f 82 cb bd
       0.6833915 0.9848572 -1.332617 -0.099369876
0003f0 19 88 f8 3e 83 11 c4 3e 01 d0 da 3f e0 fa 00 bf
       0.48541334 0.3829461 1.7094728 -0.50382805

l1.bias f4 [8]
000000 bf 7f 82 3f 88 3d 7c 3f 39 5c 78 3f df f7 96 3f
       1.0195235 0.9853139 0.9701572 1.1794394
000010 86 b9 ad 3f 3a 00 5a 3f 30 55 4c 3f e3 1a a6 3f
       1.3572242 0.85156596 0.79817486 1.2976955

l2.weight f4 [8, 8]
000000 d3 92 ac be 3d b2 21 3e 26 3e 80 be fe 97 22 3e
       -0.33705768 0.15790649 -0.25047415 0.15878293
000010 5f 49 eb bd 2b 4c 88 3e f8 d4 3a 3d 82 f4 04 bc
       -0.11488604 0.26620612 0.04561326 -0.008114936
000020 50 09 a9 bc e0 71 94 be 3a 8f 5a be be c3 16 be
       -0.020634323 -0.2899313 -0.21343699 -0.14723107
000030 d0 83 96 bd 3d 02 5d be ef 4b bc 3d 2d d2 84 be
       -0.0734936 -0.21582885 0.09194171 -0.259416
000040 e0 83 0c 3f 18 c1 7a 40 50 73 ad 3e 02 25 5b 40
       0.54888725 3.9180355 0.3387704 3.4241338
000050 65 9c 22 40 e9 e6 8b bf 7a d0 e5 be 8d 7e 3f bf
       2.5407956 -1.0929843 -0.44885617 -0.74802476
000060 29 01 64 bf 90 9c 32 c0 6a 8f 68 bf 14 33 a9 3d
       -0.8906427 -2.7908058 -0.9084383 0.082616955
000070 b5 0d 11 40 e6 28 8f be 2c 59 43 40 fb 15 85 3f
       2.2664616 -0.2796089 3.0523176 1.0397333
000080 df 0e 80 40 c8 2a 74 be 4a 31 8c 3e a8 87 1b c0
       4.0018153 -0.23844445 0.27381355 -2.4301548
000090 5e b6 9c 3f 8b c2 9b 3f 54 12 c2 bf 73 cd 22 40
       1.2243154 1.2168745 -1.5161843 2.5437896
0000a0 86 c4 74 bf 3c 7c 57 be ea 09 07 bf 10 b3 01 3e
       -0.9561237 -0.21043485 -0.527495 0.12665963
0000b0 bd 06 b9 3e 85 c1 92 3e 80 d2 5e 3b 51 ea d7 3a
       0.36137953 0.2866327 0.003399998 0.001647303
0000c0 69 a4 ee 3e 4c b4 97 3f 33 4c e4 3f b0 1e f8 be
       0.4660981 1.1851897 1.7835754 -0.48460913
0000d0 5a 14 37 bf 70 03 12 40 1f d7 24 40 32 98 17 bf
       -0.7151543 2.2814598 2.57563 -0.59216607
0000e0 d3 ad fc bf 64 3e cc bf 7c d6 47 40 a6 79 e6 3f
       -1.9740547 -1.595654 3.122466 1.8005874
0000f0 60 d3 77 3e 23 a2 03 40 2f 91 e2 bf 58 41 ee 3f
       0.24201727 2.056771 -1.7700557 1.8613691

l2.bias f4 [8]
000000 8e 84 9f be fe ff b0 be b9 88 44 3f 61 c3 82 3f
       -0.3115582 -0.34570307 0.7677112 1.0215875
000010 e2 3f 0f 3f 15 e7 57 be c1 ea 37 3e c9 a6 84 3f
       0.5595685 -0.21084245 0.17960645 1.0363399

l3.weight f4 [43, 8]
000000 f5 c8 89 3e a4 aa 66 be 57 42 d0 be b0 ee 2a bf
       0.2691113 -0.22526032 -0.40675613 -0.6677046
000010 d9 d3 e3 be cf b9 94 3d 20 82 83 3f 05 ad a2 c0
       -0.44497564 0.07262003 1.0274086 -5.0836205
000020 5f 1e 43 be cd 3d 03 be a6 a5 a7 bf 84 86 6c c0
       -0.19054554 -0.12816544 -1.3097427 -3.6957102
000030 4c d9 33 ba 2a 08 92 bd db d2 a0 bf 75 d7 eb 3f
       -0.0006860688 -0.071304634 -1.2564348 1.8425127
000040 19 07 73 be 80 6b 34 bc a2 03 74 c0 50 9c c5 bf
       -0.23733176 -0.011011958 -3.8127217 -1.5438328
000050 6f c8 c6 3f 18 19 1d 3d 39 1b 31 3d 1d c5 d9 bf
       1.5529917 0.03835401 0.043238852 -1.7013279
000060 40 4e 5a 3e 6b 92 1f be 26 ff ac bf a3 58 02 c0
       0.21318913 -0.15583198 -1.3515365 -2.03666
000070 ff 94 01 c0 f9 8c 84 bf 3a c9 d4 3f ce f1 31 bf
       -2.024719 -1.0355521 1.662391 -0.6950959
000080 a7 37 e4 3d b9 db 81 3e c3 78 e6 bf 76 ba 6c be
       0.11143427 0.25362948 -1.8005604 -0.23118004
000090 00 9e 01 3f 9b 50 55 bf 6f 44 16 3f 10 c5 ff bf
       0.50631714 -0.8332612 0.5869817 -1.9982014
0000a0 11 8d 73 be 26 2f 42 3e f6 38 8c 3e 3d 83 09 c1
       -0.23784281 0.18963298 0.27387208 -8.594541
0000b0 46 41 06 3f 26 34 04 bf ac b1 41 bf 9f 76 65 3f
       0.5244335 -0.5164207 -0.7566173 0.89634126
0000c0 d0 c5 74 be 3e bf 67 3e c0 b8 81 3e e4 4d 1b c0
       -0.23903584 0.22631547 0.25336266 -2.426629
0000d0 af ce 2d 3f 7b f2 6e be b9 19 2c bf f4 80 80 c0
       0.678935 -0.23334686 -0.6722675 -4.0157413
0000e0 00 85 1b 3e 98 dd 92 3e 37 69 a9 c0 74 ff af 3f
       0.15187454 0.28684688 -5.2940936 1.3749833
0000f0 52 b2 27 bf db 91 43 3f 26 99 e2 bc 59 d2 96 bf
       -0.6550647 0.7639443 -0.027660917 -1.1782943
000100 d6 d4 18 3d 34 85 da 3d 90 6b 81 c0 9d b4 5b c0
       0.03731235 0.10669938 -4.04438 -3.4328988
000110 e6 a2 21 3f 7a af 8d 3e a1 61 b9 3f ae 83 9c bf
       0.6313919 0.2767294 1.4482919 -1.2227685
000120 bc 6f 16 be 4b 48 82 be 7b 5c 13 3f 96 0e df bf
       -0.14691061 -0.2544578 0.5756299 -1.7426326
000130 9f 5e aa c0 98 b5 bc bf 04 e9 b2 3f 31 33 3c c0
       -5.3240504 -1.4742918 1.3977361 -2.9406245
000140 de 07 92 be 6a aa 2f 3e 66 71 b5 bf 77 07 94 3f
       -0.28521627 0.17154852 -1.4175231 1.1564778
000150 5d a9 b1 c0 15 54 0c 40 b9 a9 3e 3f 3a 7c 2b c0
       -5.551924 2.192632 0.74477726 -2.6794572
000160 83 63 10 be 00 b0 ec ba 1d c9 4f 3f fb 9c d4 bf
       -0.1410046 -0.0018057823 0.8116625 -1.6610407
000170 6d 0e 70 bf 0a 37 c7 bf 55 1e 08 3e 30 d2 d6 bf
       -0.9377201 -1.5563672 0.13292821 -1.6782894
000180 33 65 bb be 30 38 ce bd a9 95 d8 bf d1 11 9c 3e
       -0.36600646 -0.10069311 -1.6920673 0.30482343
000190 f8 f7 50 3f 3e 84 3e c0 ac a8 de bf ef 4a a5 be
       0.8162837 -2.9768214 -1.7395225 -0.32283732
0001a0 13 9a 14 be b1 77 a1 3e e6 7a 90 c0 f5 29 02 3e
       -0.145119 0.3153663 -4.5150023 0.12711318
0001b0 31 b4 2d bf 55 8a 78 bf 5a 3d a4 3f 9a 7a b7 bf
       -0.67853075 -0.9708608 1.2831223 -1.433429
0001c0 65 b2 3a 3e c0 5d 10 3e ba 40 42 bf 15 de 50 3f
       0.18232115 0.14098263 -0.75880015 0.8158887
0001d0 fd 78 e7 c0 37 73 0f 40 06 22 e2 3c 1b 11 f7 be
       -7.233519 2.2414072 0.027604114 -0.48255238
0001e0 d2 23 d9 be 10 28 f4 bc 4f 8c 44 3f dd d8 00 3f
       -0.4241014 -0.02980426 0.76776594 0.5033091
0001f0 12 f0 c0 c0 c5 92 07 c0 b3 02 10 c0 3d 6f 38 bf
       -6.0293055 -2.118333 -2.2501647 -0.72044736
000200 99 dc 24 be f9 86 a8 3e cc b8 0d be f8 e0 59 3f
       -0.16099776 0.32915476 -0.13840026 0.851089
000210 86 7f 1d bf e4 64 99 c0 00 55 1c c0 59 6f 1d bf
       -0.6152271 -4.7935658 -2.442688 -0.6149803
000220 3c 32 da 3d 12 24 05 3e 29 98 f1 be 26 23 8f 3f
       0.10654113 0.13002041 -0.471864 1.1182601
000230 4e 63 34 bf 58 2a 69 bf fb 79 8c bc 68 bb 9f c0
       -0.70464027 -0.91080236 -0.017148009 -4.9916267
000240 31 68 ac be c7 54 50 be 9b 21 02 c0 42 59 e9 be
       -0.33673242 -0.2034484 -2.033301 -0.4557591
000250 cf 70 6c 3e f8 d8 2d c0 f7 94 3e be 2a cf 32 3f
       0.23089908 -2.7163677 -0.18611513 0.6984736
000260 11 13 98 bd 9f bc 96 3e 68 b9 34 c0 32 ec 9b c0
       -0.07425512 0.2944078 -2.8238163 -4.8725824
000270 d3 75 aa 3f 46 dd 1c be a4 cb 09 bf 19 41 48 3f
       1.3317207 -0.15318784 -0.53826356 0.7822433
000280 77 4c 42 3e e3 ac ac 3e 4f a9 0d 3f fb 28 21 3f
       0.18974482 0.33725652 0.5533647 0.62953156
000290 6b c9 2a bf d4 71 ef bf 69 84 b3 bf d4 04 d4 c0
       -0.6671359 -1.8706613 -1.4024783 -6.6255894
0002a0 b6 94 41 3d c2 45 dc bd ff 27 04 c0 a0 03 5e 3f
       0.047260962 -0.10755493 -2.0649412 0.8672428
0002b0 52 2e 1e bf 08 14 17 40 f8 e9 8e bf e4 f3 71 3d
       -0.6178943 2.3605976 -1.1165152 0.059070483
0002c0 f3 02 af be 3d e6 3e 3e 5d 7b 9c bf 5b 49 31 3f
       -0.34181938 0.18642516 -1.2225147 0.69252557
0002d0 47 f9 71 bf 40 53 7f c0 a8 32 9e 3e c3 1f ec be
       -0.9452099 -3.9894562 0.30898023 -0.46117982
0002e0 b7 ed 22 3b f5 e3 34 be 45 a0 b5 3f 10 51 db c0
       0.0024860927 -0.17665084 1.4189535 -6.8536453
0002f0 94 76 4d bf 4c 1d 49 be f3 f9 ef bf 24 dd ae be
       -0.8025906 -0.19640082 -1.8748153 -0.34153092
000300 10 8d b6 3d b3 9f a8 3e 23 46 b2 be 84 76 94 c0
       0.08913624 0.3293434 -0.34819135 -4.6394672
000310 80 8b ad be 92 8b ac be 65 be a5 3f a2 fd a0 bf
       -0.33895493 -0.33700234 1.2948729 -1.2577403
000320 99 c0 a7 bd 89 25 17 be 91 25 5e c0 8a bf e6 c0
       -0.08191032 -0.14760412 -3.4710429 -7.210881
000330 25 08 11 bf d9 c7 9b bd fb 7a 56 3f 4e 8d 90 3f
       -0.5665305 -0.07606477 0.83781403 1.1293123
000340 51 5c 1d be 7e fa 71 3e e0 c4 b2 be c0 d4 8b bf
       -0.15367247 0.23630711 -0.3491583 -1.0924301
000350 d5 65 ad 3e 8f 87 c7 3e 38 23 88 be a5 71 ad be
       0.33866754 0.3897061 -0.2658937 -0.33875766
000360 5c 75 b7 be 72 df 4e 3e 36 b0 4f 3f 3f 2c 02 c0
       -0.35831726 0.20202425 0.8112825 -2.0339506
000370 62 47 35 3e bc 86 5c c0 d1 e4 8d c0 1d 38 3c bf
       0.17703012 -3.4457235 -4.4341817 -0.7352312
000380 db a2 f9 bd d5 3c a2 be 39 11 1a c0 5a 41 3d 3e
       -0.12189265 -0.31687036 -2.4073012 0.18481961
000390 9b 25 c8 c0 44 3a a7 bf 50 6c 45 3f 34 7d 0d 3f
       -6.2545905 -1.3064656 0.77118397 0.5526917
0003a0 53 7c 54 be 90 3d cd 3d 54 b9 d7 be 0b 08 cf c0
       -0.20750551 0.10021508 -0.42133582 -6.469732
0003b0 2e 21 8a c0 a9 c2 72 3d 95 cd 94 3f 76 00 e3 3e
       -4.3165503 0.059267674 1.1625239 0.4433629
0003c0 00 07 93 be c8 a5 70 bd 01 8e 9c c0 2b 2e 2e 3f
       -0.28716278 -0.05875185 -4.8923345 0.68039197
0003d0 a1 67 4c 3f 56 64 51 bf 43 11 98 3e 67 97 9a c0
       0.79845625 -0.81793725 0.2970067 -4.8309817
0003e0 3b 24 9c be 12 ad 47 be 49 16 b5 3f 69 5c b5 be
       -0.30496392 -0.19499615 1.4147426 -0.35422066
0003f0 29 d1 9c c0 ae 89 9f bf 05 67 a3 bf 34 79 9c c0
       -4.9005322 -1.2463892 -1.2765814 -4.8897953

l3.bias f4 [43]
000000 f9 8c b8 3e cd 1f d4 bf b3 b1 7c 3b 85 81 c4 3b
       0.36045054 -1.6572205 0.0038558065 0.0059968852
000010 a7 e1 e8 bf c8 86 23 3d 8c e4 0d c0 c3 42 b1 3e
       -1.8193864 0.03992346 -2.2170744 0.34621248
000020 58 87 62 be 9a b0 8c 3e ba 96 98 be 8e 7a 2a bf
       -0.22121942 0.27478486 -0.29802495 -0.66593254
000030 26 f3 9f 3b a1 dd 20 3d 68 a8 8a bf c2 8d 2e 3f
       0.0048812805 0.03927386 -1.0832644 0.68185055
000040 89 12 2f be 6c 11 28 3f b0 0b b7 bd b6 67 99 be
       -0.17096914 0.65651584 -0.08937776 -0.29961938
000050 f6 da b1 3e 12 d8 ba be 37 fb 25 bf 3e d2 79 bf
       0.34737366 -0.36492974 -0.6483645 -0.9758643
000060 0d a9 85 bd 3e 90 39 bf 96 13 a1 bf 34 0f ac 3e
       -0.065263845 -0.7248572 -1.2584102 0.3360535
000070 22 d3 98 bf a7 e4 05 bd d3 e0 23 3e ea 64 91 3e
       -1.1939433 -0.032688763 0.16003732 0.28397304
000080 0a e4 b0 be 47 7b 60 3e 05 6a 4b 3e e2 b7 d3 3d
       -0.3454898 0.21922027 0.19864662 0.10337807
000090 53 a1 f7 3d 24 78 2e 3e 01 1b 10 bf 70 71 19 c0
       0.12091317 0.17038018 -0.56291205 -2.3975487
0000a0 3d d5 ac 3e 05 f9 ca be c3 f3 e7 3e
       0.33756438 -0.39643112 0.45303163
